Contest link: https://datahack.analyticsvidhya.com/contest/practice-problem-identify-the-apparels/
Acheived test accuracy of 0.913

Model: "sequential_4"
_________________________________________________________________
Layer (type)                 Output Shape              Param #   
=================================================================
conv2d (Conv2D)              (None, 28, 28, 16)        448       
_________________________________________________________________
max_pooling2d (MaxPooling2D) (None, 14, 14, 16)        0         
_________________________________________________________________
conv2d_1 (Conv2D)            (None, 14, 14, 32)        4640      
_________________________________________________________________
max_pooling2d_1 (MaxPooling2 (None, 7, 7, 32)          0         
_________________________________________________________________
conv2d_2 (Conv2D)            (None, 7, 7, 64)          18496     
_________________________________________________________________
max_pooling2d_2 (MaxPooling2 (None, 3, 3, 64)          0         
_________________________________________________________________
flatten_4 (Flatten)          (None, 576)               0         
_________________________________________________________________
dense_8 (Dense)              (None, 128)               73856     
_________________________________________________________________
dense_9 (Dense)              (None, 10)                1290      
=================================================================
Total params: 98,730
Trainable params: 98,730
Non-trainable params: 0
